model.pth (torch, 22004 bytes, 5 tensors)

fc1.weight f4 [64, 10]
000000 10 ec b2 3e 85 80 62 3e fa a8 64 3e e7 67 aa bd
       0.34945726 0.22119339 0.22330084 -0.08320599
000010 d8 fd 9b 3d 12 c2 47 be 62 d7 07 3e dd 8c 5c 3e
       0.07616776 -0.19507626 0.13265756 0.2153811
000020 39 84 27 be 27 c3 45 be 36 71 f6 bd 83 51 91 3d
       -0.16359033 -0.19312726 -0.12033312 0.07095625
000030 e0 cf 4d 3e 29 b9 11 3e fd e0 c4 bd 85 05 2b 3c
       0.2009883 0.14230789 -0.096132256 0.010438328
000040 f9 e2 5d be 2a 3a a0 3d ef 55 c6 3d a6 60 7a 3d
       -0.21668614 0.07823594 0.09684359 0.061127327
000050 4c d7 fc 3c f6 22 30 be f6 d2 14 be 36 15 1f 3e
       0.03086438 -0.17200837 -0.145336 0.15535435
000060 6a bb 98 3d 41 20 66 bd 2c 97 82 bd 6e e9 22 be
       0.074576214 -0.056183103 -0.0637649 -0.15909359
000070 62 fa bc bd f8 13 9a bd 5e b9 6d 3d a6 99 68 bd
       -0.09227444 -0.0752334 0.058038108 -0.056787156
000080 77 75 e6 bd 01 7a 57 3e 55 49 aa bd f2 16 13 3e
       -0.112528734 0.21042635 -0.08314768 0.14364222
000090 73 b3 1e 3e 0f cf 33 be 02 f5 25 3e 88 b3 4e 3e
       0.15498142 -0.17559455 0.16206744 0.20185673
0000a0 c0 f7 ba 3c 90 39 8a 3d f7 f5 54 be bf 4e d1 bb
       0.022823215 0.067492604 -0.20796953 -0.006387561
0000b0 2c 24 69 3d 64 78 0d 3e 99 87 66 bc d2 fc b4 3c
       0.05691926 0.13815457 -0.014070415 0.02209321
0000c0 f6 3e c0 3c 90 26 2a be 64 54 8f be 3e 7b 00 be
       0.023467522 -0.16616273 -0.27994072 -0.12547013
0000d0 d0 d4 2d bc 67 58 23 3e cd 0d e7 3d 91 76 f5 bd
       -0.0106098205 0.15951692 0.11281929 -0.11985505
0000e0 d7 b1 85 3d d1 96 66 bd fa 19 10 3d b4 2a 3a 3e
       0.06528061 -0.056296173 0.035181023 0.18180352
0000f0 8b 55 2e 3d 19 2e 34 b8 6e 81 e4 3d c9 61 c9 bd
       0.04256205 -4.2958276e-05 0.11157499 -0.09833104
000100 e6 cb 35 bd a1 4f 9d bd b2 93 1b 3e 03 78 4b 3d
       -0.044383906 -0.07681204 0.1519306 0.049675
000110 87 d4 57 be 57 ec db bd f5 bf 81 bd 95 43 1e be
       -0.21077166 -0.107384376 -0.06335441 -0.15455468
000120 77 8b 7e be cf 49 6b bd ab 22 23 bd 0e 56 cd ba
       -0.24857889 -0.057443436 -0.039827984 -0.0015665905
000130 b7 dd 12 3e 81 e9 6b 3d 7f d2 9e bd c8 bf 60 bb
       0.1434239 0.057595734 -0.07754993 -0.0034293998
000140 45 e4 bb 3d a6 bd 70 3d a2 a0 50 bd 10 4f 2e 3d
       0.09174398 0.058774613 -0.05093444 0.04255587
000150 27 cd 07 bc 44 04 59 3c 0a ff 65 bd 8a 68 0b be
       -0.008288658 0.013245646 -0.056151427 -0.13614097
000160 70 11 2f bd 75 36 31 bd c6 b4 34 3e 17 bd 09 3e
       -0.04274124 -0.043264825 0.17647085 0.13451038
000170 58 83 d1 3d 4c 65 18 3e 5d f2 04 3d 09 f4 88 bd
       0.1023013 0.14882392 0.032457698 -0.06687171
000180 c7 fb 09 be ec fa 28 bd f0 9b b8 bd a9 6e ae bd
       -0.13474952 -0.041254923 -0.09014118 -0.085172005
000190 e4 de 82 3d 41 a7 0a 3e 28 2c f1 bd 68 4a 0b bd
       0.06390169 0.13540365 -0.11776 -0.034006506
0001a0 ab 13 ac 3d e4 da 4a 3c ea bf cb bd b1 b8 53 3d
       0.08402189 0.012381289 -0.09948714 0.051689807
0001b0 9b 1b 2f be bf c0 cf 3d 3c 78 4d 3d 05 75 e3 3c
       -0.17100374 0.10144185 0.050163493 0.02776576
0001c0 82 65 2a be 67 95 1a bd 93 bc f0 bd 1b 85 fa 3c
       -0.16640285 -0.037740137 -0.11754718 0.030581048
0001d0 de ee 72 bd 59 8b 94 3d 82 4a 39 3c b8 9a 97 3d
       -0.059309833 0.07253141 0.011309268 0.07402557
0001e0 d9 9f f6 3b f9 55 0a bd 2a 04 72 3e 73 07 bc bc
       0.0075263795 -0.033773396 0.23634401 -0.02295277
0001f0 d2 75 f3 bc f6 43 79 3d 7c 39 89 3d 7d 4f 1d 3d
       -0.029719267 0.06085583 0.067004174 0.038405884
000200 0b b0 13 3e 26 8b 12 be 39 f0 00 3e 0a f2 f9 3b
       0.14422624 -0.14310893 0.12591638 0.0076277303
000210 1f 15 16 be 8b 51 57 bb 87 32 44 be 41 20 b0 bd
       -0.14656495 -0.0032855 -0.191599 -0.08599902
000220 fa 26 16 be b7 b8 4d be e9 bf 5d be 79 1a 81 3e
       -0.14663306 -0.20089994 -0.21655239 0.2521551
000230 fb 14 f7 3d 26 3e 65 3d 37 fb 02 bc 2f 20 ad 3d
       0.120645486 0.055967472 -0.007994465 0.08453404
000240 30 4e c3 bd 01 5d 06 be 50 cb 21 3d 40 dd 41 3e
       -0.095363975 -0.13121416 0.039500535 0.18932056
000250 6a 4a 37 be 1c 79 9f 3d 37 aa 44 bc 1e 87 e4 bb
       -0.1789948 0.07786772 -0.012003473 -0.006974115
000260 4f 32 9b bd 36 3e 26 be 99 81 9d 3d 2c b5 ba 3d
       -0.07577955 -0.16234669 0.076907344 0.09116587
000270 66 7e c5 bd b2 83 8d 3d 99 8d 8b 3d 4e ee e5 bd
       -0.09643249 0.069098845 0.06814117 -0.11227094
000280 d2 21 c4 bd 1f 51 c5 bd 95 d4 f2 bc c8 f2 a2 3d
       -0.09576763 -0.09634613 -0.029642383 0.07956463
000290 b1 2a 9b 3d 44 0b be 3d 79 30 26 3e 16 e2 01 be
       0.07576502 0.092794925 0.16229428 -0.12683901
0002a0 d5 08 8f 3d db 8b df 3d 38 6b e9 bd 31 0d 56 be
       0.069841065 0.10915347 -0.113974035 -0.2090347
0002b0 f3 1f cd bd 2c 0d a7 bd 1d 71 bd bc 58 f2 35 bd
       -0.100158595 -0.08156809 -0.023125226 -0.04442057
0002c0 25 ea 61 be fa 39 15 bd 7c 63 cf 3c f4 7e e0 3d
       -0.22061975 -0.036432244 0.025315993 0.109617144
0002d0 b2 c1 1a bd fd 4c 59 bc d7 73 26 bd 0d d4 fe bd
       -0.03778238 -0.013262984 -0.040637817 -0.12442789
0002e0 c7 91 2a be de 33 d1 bd e1 46 98 bd 73 a7 e3 3c
       -0.16657172 -0.10214971 -0.07435394 0.027789807
0002f0 89 67 dc 3c b5 3f 42 bd cb 1d da bd 42 10 37 bd
       0.026904838 -0.047424037 -0.10650214 -0.04469324
000300 80 59 86 bd 16 f4 c1 3d c8 a2 a7 3d 13 96 7e 3c
       -0.065600395 0.09470384 0.08185345 0.01553871
000310 9f 15 5e be 20 71 07 bd 35 2f 05 bd 1e 71 15 3e
       -0.21687935 -0.03306687 -0.032515723 0.14593932
000320 c2 cc 89 bc 19 3c 29 bd 41 d3 5c bd c8 a2 d0 3c
       -0.016821269 -0.04131708 -0.053912405 0.025468245
000330 d1 de ef 3c 0f 49 4b bd b7 d2 cd bc d8 57 cc 3c
       0.029281052 -0.04963022 -0.02512489 0.02494423
000340 33 f9 66 3b f9 bb 99 3c e1 78 ca bc 46 d7 03 3d
       0.003524375 0.01876639 -0.024715843 0.032187723
000350 bd e1 6b 3d 16 f3 1d 3e 98 c9 1e be 66 2c 29 3d
       0.057588328 0.15424761 -0.1550659 0.041302107
000360 b7 77 e4 3c 2c d2 b2 be ab 71 51 be 11 38 7a bd
       0.027889116 -0.34925973 -0.20453517 -0.061088625
000370 11 3e 0d 3e f5 fb 2c be 25 4d 13 3e 4e b6 69 be
       0.13793208 -0.16892989 0.14384897 -0.2282345
000380 83 0b 40 bd 1b 41 64 be 09 09 14 be f1 e5 86 be
       -0.04688598 -0.22290461 -0.14456572 -0.26347306
000390 7c 45 69 be f6 f0 6b be cd a5 1b 3e a2 8e a6 3e
       -0.22780412 -0.23041138 0.15199967 0.32530695
0003a0 7e f9 8f 3e 7f 05 9c bd 91 8a 27 be b5 b2 49 be
       0.28120035 -0.07618236 -0.16361453 -0.19697078
0003b0 5f eb c3 3d d7 09 45 be 1f 59 37 3e 12 61 09 3e
       0.09566378 -0.19242035 0.17905091 0.13415936
0003c0 45 9c c5 bd 2b 1f 95 bc 79 00 9e bd 49 55 7c 3d
       -0.09648947 -0.018203339 -0.07714934 0.06160477
0003d0 ca b6 8d 3b 53 25 f7 3d 5b c3 8a bd 65 12 d0 3c
       0.0043247687 0.12067666 -0.06775542 0.025399396
0003e0 8a 25 96 be 68 09 4f be af c1 eb 3d c5 9e 09 bd
       -0.29325515 -0.20218432 0.115115516 -0.03359868
0003f0 ff 60 82 3e f7 4e c7 bd 5d 53 19 be 61 8d 70 be
       0.25464627 -0.09731858 -0.14973207 -0.23491432

fc1.bias f4 [64]
000000 9b f9 86 be 72 77 99 be f1 bd 9a 3e 04 c9 01 bf
       -0.2636231 -0.29973942 0.3022304 -0.5069735
000010 46 60 07 bf 9d 4d 32 3e f2 e4 81 3e 76 8b 85 3e
       -0.52881277 0.1741242 0.25369984 0.26082963
000020 87 ba 0f 3f 25 d5 85 3e 6e 1e c6 3e ac 6c b6 be
       0.56143993 0.2613918 0.3869509 -0.35629785
000030 f5 c0 e4 3e e6 36 ed be 39 67 8e 3d 87 6b 0f 3f
       0.44678465 -0.46330947 0.06953282 0.5602345
000040 76 24 f1 3e 1f 25 5c be a1 07 c6 3e fc ca 0e bf
       0.4709813 -0.21498536 0.38677695 -0.5577848
000050 af 9b d7 3e 56 94 69 3e df 67 4e 3b af 19 cd 3d
       0.42110965 0.22810492 0.0031495017 0.100146644
000060 2a 28 bc be 89 7c 1a be cd 02 98 be df bf a0 be
       -0.36749393 -0.15086569 -0.29689637 -0.31396386
000070 e7 f2 ec 3e db 9d d8 3e b2 f9 0a 3c b4 9b 75 3b
       0.4627907 0.42307934 0.008482384 0.003747684
000080 10 bc ae 3e 2f 7c b9 bd 5f a3 81 be d9 27 58 be
       0.34127855 -0.09056889 -0.25319955 -0.2110895
000090 70 a3 29 be 5b 04 fe be 1b 57 7f 3e 90 c5 92 3b
       -0.16566253 -0.49612698 0.24935572 0.0044791177
0000a0 b4 af c6 be 58 cf a6 be 52 d1 98 be 4f 15 6d be
       -0.38805926 -0.32580066 -0.298472 -0.2315266
0000b0 19 f9 b5 3d 11 5b 5e 3e c5 80 39 be dd eb a9 3e
       0.08885402 0.21714427 -0.18115528 0.33187762
0000c0 b7 9e ff bd b7 6a 47 be f9 6f b3 be d7 28 03 3f
       -0.12481444 -0.19474302 -0.35046366 0.5123419
0000d0 ff 08 79 be 82 61 2d be 7b 81 be be 71 74 a2 be
       -0.24319838 -0.16931728 -0.3720816 -0.31729463
0000e0 0b b8 1c be 80 b8 e9 3d 38 ed f5 bd 3e 54 03 bf
       -0.15304582 0.11412144 -0.120081365 -0.5130042
0000f0 0b 77 9d 3e 79 87 d0 3e a4 3f 90 be 78 8d 92 be
       0.30754885 0.40728357 -0.28173554 -0.28623557

fc2.weight f4 [64, 64]
000000 ad ac 08 3d 66 81 25 be 83 82 2a be 59 02 fd 3a
       0.0333678 -0.16162643 -0.16651349 0.0019303068
000010 7d 7d ca bd 0b 66 4a bd 36 d2 03 bd 10 b1 39 3d
       -0.09887216 -0.049413722 -0.032182895 0.045334876
000020 6e 5d bb bd 73 a9 96 3c 62 a2 df bd 94 ce 11 be
       -0.0914868 0.018391347 -0.10919644 -0.1423896
000030 ec 60 8c bd ab a2 38 be 58 e0 8a ba ab 28 eb 3b
       -0.06854424 -0.18030803 -0.0010595424 0.007176479
000040 f9 53 6c 3b 10 dc ce bc 0b fb 3f be bf 80 17 3c
       0.0036060794 -0.025251418 -0.18748109 0.009247004
000050 7b 08 0d be 13 17 2c be e7 94 42 be ad 23 d4 bd
       -0.13772766 -0.16805677 -0.19002114 -0.10358367
000060 77 f8 4d bd e1 13 8b bd 59 38 85 bd 54 fc 12 be
       -0.050285783 -0.06790901 -0.06504888 -0.14354068
000070 78 cd 9e bd 04 53 17 bd 92 fc 12 3d 62 51 64 3d
       -0.07754034 -0.036944404 0.0358854 0.055741675
000080 c2 18 da bc 9d 4f 4c bc 5c b5 19 bd 8e 80 ec 3b
       -0.026623134 -0.012470153 -0.037526473 0.0072174734
000090 c6 0b 26 bd cb d6 33 3d 38 a6 a1 bd 65 d0 44 bd
       -0.04053857 0.043906014 -0.07893032 -0.048050303
0000a0 55 24 8e 3d 3a 98 0c bd fd 09 4a be d1 f5 19 bd
       0.069405235 -0.034324862 -0.19730373 -0.037587944
0000b0 f1 9e 0a 3d 81 ca 28 be 1d a1 0c bc 6f 47 a9 3c
       0.033842985 -0.16483499 -0.008583334 0.020663945
0000c0 d3 64 b0 bd 18 a8 0f be 80 65 98 bd ad ab e2 3a
       -0.08612981 -0.14028966 -0.074412346 0.0017293595
0000d0 60 de 14 be 5d 7a f0 3c 4d 25 46 be f2 dd 09 ba
       -0.14537954 0.029355222 -0.19350167 -0.00052592077
0000e0 06 2b 83 3c 53 71 13 3d 00 43 10 3d ea 41 e9 bd
       0.016011726 0.035996746 0.035220146 -0.11389525
0000f0 3d 14 fa bd ef 83 43 bd 48 bc 21 be 5c f9 44 3c
       -0.122108914 -0.047733244 -0.1579448 0.0120223425
000100 a0 27 fb 3c 86 96 d1 3d 1a 47 8f 3d 4e 7f dc 3c
       0.030658543 0.10233788 0.069959834 0.026916172
000110 78 8a 9d 3c b0 b2 43 bc 48 66 8c 3c 7c f0 a4 bd
       0.019231066 -0.011944458 0.017138615 -0.08053681
000120 c0 bb a4 3c 6c 59 be bd c4 3e 99 bd 5c 61 2e bd
       0.020109057 -0.092943996 -0.07482675 -0.042573318
000130 dd 9f 94 bc 16 4f bd bc b8 d5 da bd 4a e4 fa 3d
       -0.018142635 -0.023109 -0.10685295 0.12250574
000140 6a 62 2b be a4 32 b2 3d 1c e6 1f be f0 32 43 3d
       -0.1673676 0.08701065 -0.15615124 0.047656
000150 50 2a 6b bc 58 8a 69 3c 77 9c 85 bd 51 80 5e 3d
       -0.01435335 0.014254175 -0.06523984 0.05432159
000160 12 91 9a bd 70 e5 67 3d 80 69 0c bb 58 f9 12 bd
       -0.07547201 0.056615293 -0.0021425188 -0.035882324
000170 84 41 23 bd e9 e8 48 bb 54 bd b4 ba 8e 7a 69 3d
       -0.039857402 -0.0030656403 -0.0013789334 0.057001643
000180 26 c7 fd bd ba 6d f4 bc b4 20 21 be 00 44 27 be
       -0.123915 -0.029837478 -0.15735132 -0.16334534
000190 3e 60 b0 3d 62 fb c6 bd 84 19 56 bd b2 7b a8 bd
       0.08612107 -0.09715916 -0.052270427 -0.08226718
0001a0 16 ff 85 bd c0 29 a1 bb 2d 5e 19 be 50 8f 7a 3d
       -0.065427944 -0.004918307 -0.14977331 0.06117183
0001b0 98 ab ff bd 14 93 39 bd 2c aa bd 3d e5 b0 48 bd
       -0.12483901 -0.04530628 0.09260973 -0.048996825
0001c0 3a 5d 98 bd 7c 6a 06 be 24 df 43 bc 09 f7 1a be
       -0.074396566 -0.13126558 -0.011955056 -0.15133299
0001d0 98 d1 c4 bd 44 71 3b bd d8 c1 ba 3c 48 f6 a9 bd
       -0.09610289 -0.045762315 0.02279751 -0.082989275
0001e0 62 31 f8 bd 30 1d 2c 3c 08 7f 25 be 78 e9 2e 3d
       -0.12118794 0.010505006 -0.1616174 0.042703122
0001f0 80 59 38 3c 70 fd cb bc f6 fe cc 3d 76 71 ad bd
       0.011251807 -0.024901122 0.100095674 -0.084689066
000200 b9 41 d5 bd b8 17 5f 3d fc b6 7f be cc 31 32 be
       -0.10412926 0.05446598 -0.24972147 -0.17401809
000210 66 5f 33 be 18 b3 d8 bd 1c 8d b8 bd 5a 24 5b be
       -0.1751686 -0.105810344 -0.090112895 -0.21400586
000220 78 f1 1b bd 56 0a 18 3c 6d a4 19 be 45 3b 44 bc
       -0.03807208 0.009279808 -0.1500413 -0.011977022
000230 3d ae 80 3d 5c 36 1a bb cc bd d5 3c 9d 5e 47 bd
       0.06283233 -0.0023530936 0.026091479 -0.048674215
000240 f3 46 fd bd 21 60 95 3c dd f7 9e 3d 85 a9 b4 bd
       -0.12367048 0.018234314 0.0776212 -0.08821396
000250 ec b4 5f bd c2 92 94 bd 2c 3c d2 bd f5 01 51 bb
       -0.0546159 -0.07254554 -0.10265383 -0.0031892036
000260 cd b7 6e be ef e9 1d bc df 13 16 bb b3 6b ee bd
       -0.23312302 -0.009638294 -0.0022900028 -0.11641636
000270 77 e9 e7 3c 7f 58 c0 bd 6b 9f 02 be ac 7a da bc
       0.028309567 -0.09391879 -0.12756126 -0.026669823
000280 c8 7b f5 bd b9 18 5d be c7 76 c8 3d 7a 00 9f bd
       -0.119865 -0.21591462 0.0978828 -0.07763763
000290 ca 9a 63 bd f1 83 35 be da 02 a5 ba 27 78 47 3d
       -0.05556754 -0.17726113 -0.0012589351 0.04869857
0002a0 c9 47 4f be 4b 17 67 bd f3 40 a9 bc 66 dc 50 bd
       -0.20242228 -0.0564187 -0.020660853 -0.05099144
0002b0 f8 c7 15 be 58 22 7a 3d b9 a9 fa bc bc 57 ef bd
       -0.14627063 0.06106791 -0.030598508 -0.11686656
0002c0 76 87 89 3c a6 ac 92 bd 87 b1 13 bd 07 67 c6 bd
       0.016788226 -0.07161836 -0.036057975 -0.0968762
0002d0 02 d1 43 3d 38 a3 bc bd 5b 99 09 be e8 db 4c bd
       0.047806747 -0.09210819 -0.13437407 -0.050014406
0002e0 70 cf 8d bd 3b b7 96 3c b5 de 16 3c 58 b6 45 3c
       -0.06924331 0.018397918 0.009208371 0.0120674
0002f0 ff 15 44 3d 15 10 13 bd bc 06 03 3d 95 00 09 3b
       0.04787254 -0.03590401 0.031988844 0.0020904888
000300 42 c7 01 bf 58 33 ca be 27 19 88 be b1 e8 c1 bc
       -0.5069467 -0.39492297 -0.2658169 -0.023670526
000310 bd 4b 16 3e f3 81 8f be 38 66 b7 be 51 7d c8 3d
       0.1467733 -0.2802883 -0.35820174 0.09789527
000320 45 36 64 be be 4e 8d be fe 19 e2 be 7a 12 cb be
       -0.22286327 -0.27599138 -0.44160455 -0.39662534
000330 25 d6 98 be a3 7c d8 bd 41 5c d4 be 49 69 02 be
       -0.2985088 -0.105706476 -0.41476634 -0.12735476
000340 d4 0c bd be fd 90 57 3e 83 fe 3c be 28 e8 26 3d
       -0.3692385 0.21051402 -0.18456464 0.040748745
000350 ff be c3 bd ef 42 63 be 2d 33 8e be 46 47 a2 bd
       -0.09557914 -0.22193502 -0.2777342 -0.079237506
000360 e7 c7 11 bf d4 a5 6b bd aa 9d d3 be b6 7c c0 be
       -0.5694565 -0.057531193 -0.41331226 -0.37595147
000370 57 2d 76 be 33 59 db be dc e3 9f bd 8f 82 ef bd
       -0.24040733 -0.4284149 -0.078071326 -0.11694824
000380 0e 5f 20 bd 90 02 61 be 9a 89 8b be a5 3a 4f 3d
       -0.03915315 -0.21973634 -0.2725342 0.050593037
000390 57 36 a4 3d 33 f2 2c bf 48 ba d7 bc d8 3e 46 bd
       0.08018177 -0.67557067 -0.026333943 -0.048399776
0003a0 b4 8c b7 bd d9 b6 12 bf 0c 17 5d be 07 c4 e7 3d
       -0.08962384 -0.57310253 -0.21590823 0.11316686
0003b0 1c c0 9a 3d 50 01 51 be 7c 4d 8c be 41 e1 53 be
       0.07556173 -0.20410657 -0.27402866 -0.20691396
0003c0 b4 99 1c bd ab 34 9a be 08 50 0b be 22 aa fc be
       -0.03823252 -0.30118307 -0.13604748 -0.4934855
0003d0 44 e7 2b be 89 41 cb be ae e1 a3 bd bb b4 d4 3e
       -0.1678744 -0.39698437 -0.08002029 0.41544136
0003e0 0f 3f 36 3e 50 19 2d be 4c 4c a2 bd 23 d2 63 be
       0.17797492 -0.16904187 -0.07924709 -0.2224813
0003f0 a8 8c d8 bd 67 2d 77 3d 03 19 c5 be 26 c5 a2 3d
       -0.10573703 0.060346033 -0.38495645 0.07947759

fc2.bias f4 [64]
000000 55 9a 11 bc 45 91 06 be af 60 3d bd 31 bb 6a bd
       -0.008886893 -0.13141353 -0.046234783 -0.057307426
000010 37 53 4a bd 8e 19 81 bc e3 ba 46 bd 1c 17 88 3e
       -0.049395766 -0.015759256 -0.048518073 0.2658013
000020 63 0b 0c be c0 24 a8 bc 17 09 09 3f e1 f5 fc bc
       -0.13676219 -0.020525336 0.53529495 -0.030878963
000030 98 4b 70 3c 34 54 29 3c 51 2c 5a be 9a ff ee 3c
       0.01466646 0.010335017 -0.21305968 0.029174615
000040 90 8c 5e bd 06 45 1d be d2 2a 15 bd b0 48 9d bd
       -0.05433327 -0.15358362 -0.03641779 -0.0767988
000050 07 05 ca bd 28 20 22 be e1 14 c2 bc 7a 59 98 3c
       -0.0986424 -0.15832579 -0.023691596 0.018597353
000060 ab e0 fe bd 69 c9 f3 3e d7 11 c3 3e 81 aa 1d bd
       -0.12445196 0.476146 0.38099548 -0.038492683
000070 41 51 a9 3e d0 de b1 bc 24 35 a6 bd b1 e8 c4 3d
       0.33069804 -0.02171269 -0.081156045 0.09614695
000080 eb 88 0c be 80 bd 1b be 9d 19 09 bd 5c ba 0f bd
       -0.13724105 -0.15209007 -0.033471692 -0.035089836
000090 e2 72 3e be d4 c2 8d bb 37 42 83 bd ab a6 08 3e
       -0.18598512 -0.004326204 -0.06409114 0.13344829
0000a0 1d 4e e3 bd d6 0b 96 bc 2e 7c 41 bd d0 d3 32 be
       -0.11098883 -0.01831619 -0.047237568 -0.17463613
0000b0 ad 69 1e bd eb d3 a2 bd 8a de 2f bd a8 ad f6 3e
       -0.038675 -0.079505764 -0.04293684 0.48179364
0000c0 ba 1c 4c bc 6d 61 e1 3e 11 e7 c1 3b 43 e9 99 3e
       -0.012458021 0.44019642 0.005917438 0.30060777
0000d0 70 59 49 3e 3c c1 e6 bd 7a 3c b8 bd 4a 14 10 be
       0.19663024 -0.11267325 -0.0899591 -0.1407024
0000e0 2d 0c d9 bd 00 98 93 3e 85 8e 34 3c a8 60 68 bd
       -0.105980255 0.28826904 0.011020307 -0.056732804
0000f0 d9 08 03 3f 5d 8a 23 be 94 52 09 be 60 59 82 bc
       0.51185375 -0.1597075 -0.13410407 -0.015911758

fc3.weight f4 [1, 64]
000000 8d 42 ae bc e8 b7 0f 3d 44 a4 cc 3c b5 58 d7 bc
       -0.021271968 0.035087496 0.024980672 -0.026287416
000010 cc a6 ca 3c 0c 60 c6 3a 64 e5 b3 3c 5e a7 08 3c
       0.024737738 0.0015134825 0.021959968 0.008340685
000020 53 d4 80 bc 66 ba f4 3a 84 12 24 3c d2 ab 3a 3d
       -0.015726244 0.0018671274 0.01001418 0.045574017
000030 95 3e 70 bc 4a d3 93 bc 3e e0 30 3d 65 46 bf bc
       -0.014663358 -0.018045086 0.043182604 -0.023348996
000040 e6 00 9f bb e6 e8 49 3c 94 14 51 3d 52 81 02 bd
       -0.004852402 0.012323594 0.051045015 -0.03186161
000050 23 2a 02 3d 59 d0 19 b9 7b ca 14 bd cb 91 15 bd
       0.031778466 -0.00014668833 -0.036325913 -0.036515992
000060 31 d6 84 bd f3 02 9a 3b b2 2b bc b7 71 71 bd bb
       -0.06486166 0.0047000586 -2.2431694e-05 -0.0057813455
000070 8e 76 9f 3b d8 cc 0a bc fd 57 fe b9 78 4c ba bb
       0.0048664277 -0.00847169 -0.00048512212 -0.0056853853
000080 21 7f 91 3c 52 d8 12 bd 50 56 f8 bb df 86 8e bc
       0.017760815 -0.03585083 -0.0075786486 -0.017398296
000090 25 c6 de 3b 50 d7 7f bc 40 9e 89 bc 6b 27 f9 ba
       0.006798523 -0.015615299 -0.016799092 -0.001900894
0000a0 38 a7 ac 3b d7 97 2c bc ac bf 6d bd 0e f8 ca bb
       0.0052689575 -0.010534248 -0.05804412 -0.006194121
0000b0 8b c0 48 bc 7e b6 0b 3d e7 b6 91 bb 59 cc 0f 3b
       -0.012252937 0.034109585 -0.0044468525 0.002194187
0000c0 8f 3d bf bb ff 4a ea b9 4d 81 3c bd 42 39 41 3b
       -0.005836196 -0.00044687834 -0.04602175 0.0029483591
0000d0 6d db b7 3c eb 7e 6a 3d f6 a6 f5 bc 06 22 56 bc
       0.022443498 0.057249945 -0.02998684 -0.013069635
0000e0 6e fd 3c 3d 08 14 11 3c 16 59 ea ba 42 ae c7 bc
       0.046140127 0.0088548735 -0.0017879333 -0.024375085
0000f0 a3 c5 8b 39 52 5a de bb 84 f1 81 bc 83 ef 6f 3c
       0.00026659397 -0.0067856694 -0.015862234 0.014644506
